Task 6/fsrcnn.pth (torch, 61639 bytes, 22 tensors)

first_part.0.weight f4 [64, 1, 5, 5]
0	0x3d0a0fe6	0.03370657
1	0x3c7e1028	0.015506782
2	0x3d1c660e	0.038183264
3	0xbba98249	-0.005173002
4	0xbcfffde4	-0.031248994
5	0x3d033f32	0.03204269
6	0xbd322d17	-0.043500032
7	0xbdb59ac2	-0.08867408
8	0x3d5e0003	0.05419923
9	0xbd20487f	-0.039131638
10	0x3c3d4b06	0.0115535315
11	0x3b45ed11	0.0030201117
12	0x3d492aa4	0.04911293
13	0x3c066c04	0.008204464
14	0xbd4a9f1a	-0.049468137
15	0xbcd3c8d8	-0.025852606
16	0xbc435c28	-0.011923827
17	0xbd50ddb5	-0.050992686
18	0xbccddd49	-0.025129931
19	0x3d0deb2f	0.034648117
20	0x3c285229	0.010273495
21	0xbd76f7c9	-0.0602949
22	0xbd9f461e	-0.07777046
23	0x3c7ffd3e	0.0156243425
24	0xbc5452b1	-0.012959168
25	0xbd1fe284	-0.03903438
26	0xbb985ea6	-0.004649955
27	0x3cbf25e8	0.023333505
28	0x3d63b172	0.055589147
29	0xbd1c3cc9	-0.038143907
30	0xbc2a53b4	-0.010395933
31	0x3c600e4a	0.013675282
32	0x3d0202f6	0.031741105
33	0xbd3dcc0f	-0.046337184
34	0x3cab489b	0.020908644
35	0xbd35ef92	-0.044417925
36	0xbc4849f1	-0.01222466
37	0xbd6ebb39	-0.05828402
38	0xbd26281f	-0.040565606
39	0xbd57f6b9	-0.052725527
40	0x3ccaf4d7	0.024774952
41	0xbce2179d	-0.02759915
42	0x3d992314	0.07477394
43	0x3d5738ca	0.052544393
44	0x3b0161b2	0.0019742069
45	0xbd846ed6	-0.06466453
46	0xbcd09303	-0.025460726
47	0xbcd0f6c9	-0.025508301
48	0xbd3e97f8	-0.046531647
49	0xbc910aa1	-0.017705264
50	0x3ca4bd0b	0.020109674
51	0xbd80cfa1	-0.06289602
52	0x3c86a11c	0.016434245
53	0x3cba6311	0.022752317
54	0x3aab2445	0.0013057074
55	0xbd75b880	-0.059990406
56	0x3d2528e8	0.040322214
57	0xbd0d2569	-0.034459505
58	0xbd0ca663	-0.034338366
59	0x3d10f634	0.035391048
60	0x3c7b33d7	0.015332184
61	0xbd3dd7fd	-0.04634856
62	0xbd3c435e	-0.045962684
63	0x3dc2f27d	0.09518907
64	0xba96da58	-0.0011509163
65	0x3c68bfcd	0.014205885
66	0xbc88395d	-0.016628915
67	0xbd0c96f6	-0.034323655
68	0xbd8efe05	-0.06982044
69	0x3cc074fc	0.023493282
70	0x3c5855c3	0.013204041
71	0x3d1dc08c	0.038513705
72	0x3a73d68a	0.0009301683
73	0xbc3ddc19	-0.01158812
74	0xbc91f5f0	-0.017817467
75	0x3c1c2dda	0.009532416
76	0xbc8b2c4c	-0.016988896
77	0x3d92b9ce	0.07164346
78	0xbd78bacb	-0.060725015
79	0xbcb52f32	-0.022117231
80	0xbbb8b8a2	-0.0056372443
81	0xbc81824d	-0.015809203
82	0xbc07b6c7	-0.008283324
83	0xbc46ca66	-0.0121332165
84	0xbd8c5f76	-0.06854145
85	0x3d20d82c	0.039268658
86	0x3ce28aa9	0.027654009
87	0xbd32a2a7	-0.04361215
88	0xbbfafea2	-0.007659749
89	0x3d184021	0.037170533
90	0x3d36189d	0.044457067
91	0xbb85c445	-0.004082235
92	0x3b8a6f5e	0.004224702
93	0x3bdbfd3c	0.0067135375
94	0xbd395b5d	-0.045253146
95	0x3c9c417f	0.0190742
96	0xbcba7f84	-0.022765882
97	0xbd58b068	-0.05290261
98	0x3c8e6344	0.017381318
99	0x3c8ea601	0.017413141
100	0xbc82e5b6	-0.015978675
101	0x3d37419f	0.044740316
102	0xbca838c8	-0.020534888
103	0x3d3509be	0.044198744
104	0xbc850903	-0.016239649
105	0x3d121303	0.035662662
106	0x3cbd1aae	0.02308401
107	0xbd406af9	-0.046977017
108	0x3c0cfa81	0.008604647
109	0xbcebcdd3	-0.028784668
110	0x3b19c605	0.0023463976
111	0xbcbc2ad4	-0.02296964
112	0x3a4fddef	0.0007929494
113	0xbc6f2d8c	-0.014598262
114	0xbb154131	-0.0022774453
115	0xbd0e6494	-0.034763888
116	0xbc762341	-0.015023054
117	0x3cdd3efd	0.027007574
118	0xbc9942b8	-0.018708572
119	0xbd25807e	-0.040405743
120	0x3ce816a8	0.028331116
121	0x3c3b0044	0.011413638
122	0xbc9838f9	-0.018581854
123	0xbcd95eff	-0.026534555
124	0xbc859fd5	-0.016311565
125	0x3cc685ab	0.02423366
126	0x3b59785a	0.0033183307
127	0xbdc17254	-0.094456345
128	0xbc943df6	-0.018095952
129	0xbd2d4087	-0.042297866
130	0xbb9acc4f	-0.0047240625
131	0xbc21b4cb	-0.009869765
132	0xbd57c25b	-0.052675586
133	0xbbbd881e	-0.0057840487
134	0x3cc9088f	0.024540214
135	0x3c1833bc	0.009289678
136	0xbc213409	-0.009839066
137	0x3cd39f57	0.025832815
138	0xbcddb563	-0.027064031
139	0xbd08d3e2	-0.033405192
140	0xbb5242ae	-0.0032083201
141	0xbcafd092	-0.021461759
142	0x3d4575ce	0.04820805
143	0xbccddd65	-0.025129983
144	0xbbeb5886	-0.0071821837
145	0xbc2e59e4	-0.010641549
146	0xbd7ddcaf	-0.06197804
147	0x3ce004fc	0.027346127
148	0xbd1b04c1	-0.03784633
149	0xbd848902	-0.06471445
150	0x3d129f13	0.035796236
151	0x3c5ffa30	0.013670489
152	0x3d014b7f	0.03156614
153	0xbd470262	-0.048586257
154	0xbb034f7b	-0.0020036388
155	0xbda2b1c1	-0.0794406
156	0x3c1b9dd1	0.009498076
157	0x3d19135f	0.03737199
158	0x3c1e0845	0.009645526
159	0xbd818af7	-0.063253336
160	0x3c5bd678	0.013417833
161	0x3d6cb5a4	0.057790413
162	0xbc97b902	-0.018520836
163	0x3d490252	0.04907448
164	0xbc74c99b	-0.014940645
165	0x3d3c3503	0.045948993
166	0x3bb150fa	0.0054112645
167	0x3d093f92	0.03350789
168	0x3c9f949b	0.01948004
169	0x3c0fbc77	0.008772961
170	0x386dadbf	5.6667017e-05
171	0xbc3275e5	-0.010892366
172	0xbd457ffe	-0.048217766
173	0xbc981750	-0.018565804
174	0xbcd64cce	-0.02615967
175	0x3d244f3b	0.040114623
176	0x3c710cf4	0.014712561
177	0x3d98a04e	0.07452451
178	0x3daf6ae5	0.085653104
179	0xbd419e9c	-0.047270402
180	0xbb4f402d	-0.0031623945
181	0x3c80f1bc	0.015740268
182	0x3d26729f	0.040636655
183	0x3d23618f	0.03988796
184	0xbc5092c9	-0.012730309
185	0x3d35ea99	0.044413183
186	0x3c46ab20	0.01212576
187	0xbd418c28	-0.047252804
188	0x3c6a2992	0.014292138
189	0x3d336abd	0.043802965
190	0x3d854033	0.06506386
191	0x3c9d3270	0.01918909
192	0x3cd70c37	0.026250942
193	0xbd8478c0	-0.06468344
194	0x3cfc994f	0.030834822
195	0xbc954ed0	-0.018226057
196	0x3d57925b	0.05262981
197	0x3c7419fe	0.014898775
198	0xbd6640df	-0.05621421
199	0xbd8483f2	-0.06470479
200	0xbd33e061	-0.043915156
201	0x3d844f57	0.064604454
202	0x3d7e95a4	0.062154427
203	0x3cf99599	0.030466842
204	0x3bdf4ba0	0.006814435
205	0xbc37113e	-0.011173544
206	0x3c78d49c	0.015187409
207	0x3c02b69b	0.007978107
208	0xbcdd8d4d	-0.027044917
209	0xbd7c8bc8	-0.061656743
210	0xbceb76bf	-0.028743146
211	0x3c30a3b1	0.010781215
212	0x3d3f7d44	0.046750322
213	0xbc8dbb8f	-0.017301349
214	0xbca0b9c5	-0.019619832
215	0xbc2e33c4	-0.010632459
216	0x3ba06e8d	0.004895991
217	0x3cbe01a2	0.023194138
218	0xbdc6c353	-0.09705224
219	0x3cacd158	0.021095917
220	0x3c8f09dd	0.017460758
221	0xbd697870	-0.056999624
222	0x3c117f38	0.008880429
223	0xbd527c01	-0.05138779
224	0x3d28151c	0.041035756
225	0x3b98f6cb	0.004668092
226	0x3d305119	0.04304609
227	0x3c9d0048	0.019165173
228	0x3d02e3de	0.031955592
229	0xbbb39a5c	-0.0054810476
230	0xbbb197bb	-0.005419699
231	0xbb630fa4	-0.0034646774
232	0x3cdfc68d	0.027316356
233	0xbc9459e9	-0.018109279
234	0x3b8e8994	0.0043498967
235	0xbd2cce40	-0.042188883
236	0xbc80b2c1	-0.015710237
237	0xbcd58911	-0.026066335
238	0x3c30c202	0.010788443
239	0x3ccfd21f	0.025368748
240	0x3ac01f7b	0.0014657819
241	0xbcea474b	-0.028598448
242	0xbc1f77f3	-0.009733188
243	0x3d359972	0.04433579
244	0x3cd2d096	0.025734227
245	0xbd3a6f72	-0.04551644
246	0xbd7238ae	-0.059136085
247	0x3c9acfb3	0.018897867
248	0xbcbfbfd2	-0.023406897
249	0x3b090624	0.00209082
250	0xbd60d52b	-0.054890793
251	0xba6de805	-0.0009075406
252	0xbb877854	-0.0041342173
253	0xbb7f2de6	-0.003893727
254	0x3d7a693e	0.061135523
255	0xbd05dea8	-0.032683045

first_part.0.bias f4 [64]
0	0xbba4bbcd	-0.0050272704
1	0x3ac536b1	0.0015046207
2	0xbb698817	-0.0035634094
3	0x3b64c981	0.0034910145
4	0xbb87e6c3	-0.004147382
5	0x3b678f4e	0.003533322
6	0x3be51caf	0.0069919447
7	0x3bfd4a88	0.007729832
8	0xba5cab7b	-0.00084178866
9	0xba8ba4da	-0.0010653988
10	0xbc19efb1	-0.009395526
11	0x3a9fb62c	0.0012185029
12	0x3b6d448e	0.0036204192
13	0xbbc00d1c	-0.0058609378
14	0x3b841379	0.0040306416
15	0x3c2e984e	0.010656429
16	0xbb8ba803	-0.004261972
17	0xba292a02	-0.0006453098
18	0xba66edbf	-0.00088092306
19	0xbaae4109	-0.0013294528
20	0xbb600470	-0.0034182332
21	0xb9116aa6	-0.00013868007
22	0xbb302e24	-0.002688297
23	0xbb51a955	-0.00319918
24	0xba80dbb7	-0.0009831105
25	0x3afe15ee	0.0019385198
26	0xbb5c7ed2	-0.0033644927
27	0x3aedece1	0.001815226
28	0xbab40e4d	-0.0013737172
29	0x39c93841	0.0003837962
30	0xbb26d719	-0.0025457798
31	0xbb07bbf8	-0.0020711403
32	0xbb69db8c	-0.0035683839
33	0xbb59ee0d	-0.0033253462
34	0xbc19259a	-0.009347344
35	0xbbf49b16	-0.0074647767
36	0xbbb581bb	-0.0055391467
37	0xb88adfa3	-6.6220084e-05
38	0x3b988bd6	0.0046553416
39	0xbbdee1ce	-0.0068018204
40	0x3b9e4a52	0.004830637
41	0x3c54e6ba	0.012994463
42	0x3b0cffdb	0.0021514806
43	0x3ba28141	0.004959256
44	0xb9d1fd4e	-0.00040052313
45	0xbb89b1a1	-0.004202083
46	0xbb7f4aaf	-0.0038954427
47	0x3afe992b	0.001942431
48	0x3a811fd2	0.0009851402
49	0x3b85ca5b	0.0040829605
50	0x3bf31d5b	0.007419271
51	0xbc017928	-0.007902421
52	0xbb8b1bd6	-0.0042452617
53	0xbbdc2a03	-0.0067188754
54	0xbb92bd39	-0.0044781235
55	0x3bc39460	0.0059686154
56	0x3b8889c1	0.004166812
57	0xba0e31c6	-0.0005424287
58	0x3b5ec109	0.003398957
59	0xbac9c419	-0.0015393525
60	0xba4f773a	-0.00079141895
61	0xba4f9f72	-0.00079201825
62	0x3a58f3e7	0.00082760904
63	0xb97cda77	-0.00024113977

first_part.1.weight f4 [64]
0	0x3e79865d	0.24367662
1	0x3e776eed	0.24163409
2	0x3e681405	0.22663887
3	0x3e7fc468	0.24977267
4	0x3e7b6046	0.24548444
5	0x3e807644	0.2509023
6	0x3e930296	0.2871291
7	0x3e827c7b	0.25485596
8	0x3e903d14	0.281716
9	0x3e839773	0.25701484
10	0x3e8b688b	0.27228197
11	0x3e810774	0.25201
12	0x3e814f01	0.25255588
13	0x3ea7cfbc	0.32775676
14	0x3e79ef3c	0.24407667
15	0x3e87012e	0.26368088
16	0x3e7758f3	0.24155025
17	0x3ecea084	0.4035684
18	0x3e7c5e1a	0.24645272
19	0x3e83ace4	0.25717843
20	0x3e916f9e	0.2840547
21	0x3e6ec02e	0.23315498
22	0x3e7b711f	0.24554871
23	0x3f0f04cc	0.55866694
24	0x3e81302e	0.2523207
25	0x3e7bc004	0.24584967
26	0x3ea95253	0.3307062
27	0x3e802067	0.2502472
28	0x3e80c95f	0.25153634
29	0x3ea363c4	0.31912053
30	0x3e7b0799	0.24514617
31	0x3e94669a	0.2898453
32	0x3f073a8e	0.5282372
33	0x3e83e8af	0.2576346
34	0x3e7ef877	0.2489947
35	0x3e919c1c	0.28439415
36	0x3e7b70ee	0.24554798
37	0x3eaf7804	0.34271252
38	0x3e79d1a9	0.24396385
39	0x3e83bf3b	0.25731835
40	0x3e862fb1	0.2620826
41	0x3e5cfe12	0.21581295
42	0x3e7839c4	0.24240786
43	0x3e84b45f	0.25918862
44	0x3e97b061	0.29626754
45	0x3e6be109	0.23035063
46	0x3e6cc3b9	0.23121537
47	0x3e7d10c3	0.24713425
48	0x3e74e32e	0.23914787
49	0x3e830ec4	0.25597203
50	0x3e774246	0.24146375
51	0x3e7ae8b4	0.24502832
52	0x3e3674cc	0.17817992
53	0x3e7d9842	0.24765113
54	0x3e6fd5b5	0.23421367
55	0x3e933eeb	0.2875894
56	0x3e805547	0.2506506
57	0x3e784987	0.24246798
58	0x3eb119e5	0.34590068
59	0x3e928c03	0.28622445
60	0x3e9a6c78	0.3016088
61	0x3e9a2c1d	0.3011178
62	0x3e8ad4dd	0.27115527
63	0x3e7fd244	0.24982554

mid_part.0.weight f4 [12, 64, 1, 1]
0	0x3cd5b046	0.02608503
1	0xbf291ad5	-0.6605657
2	0x3f6712d2	0.9026309
3	0x3edbdbe4	0.429412
4	0xbe942cd1	-0.28940442
5	0x3e8b52e5	0.2721168
6	0x3d8de1f4	0.06927863
7	0x3e4e1ff7	0.20129381
8	0x3ee0e6a4	0.43925965
9	0xbe64ccd1	-0.22343756
10	0x3def8484	0.11695197
11	0xbe399ef6	-0.18127045
12	0x3f0af0fc	0.5427396
13	0x3f3bcfa2	0.733637
14	0xbd72ec8d	-0.059307624
15	0x3e507d2e	0.20360252
16	0x3f253369	0.6453157
17	0x3d3f6499	0.046726797
18	0xbeb6e252	-0.35719544
19	0x3e6cfd2c	0.23143452
20	0x3f239af5	0.6390832
21	0x3f21b863	0.63171977
22	0x3f1e1e5e	0.61765087
23	0xbe8d1a5a	-0.27559167
24	0xbeb08626	-0.34477347
25	0xbda739a6	-0.081652924
26	0x39742dc2	0.000232867
27	0x3ef7ca69	0.48396614
28	0x3df28717	0.118421726
29	0x3d601ab9	0.054712985
30	0xbf2f259f	-0.6841678
31	0x3ee72880	0.45148087
32	0x3f0892ee	0.53349197
33	0x3df9f4f5	0.12204925
34	0x3e12e0e6	0.14343604
35	0xbe766e44	-0.240655
36	0xbd8ef87c	-0.069809884
37	0x3cd7870b	0.02630951
38	0x3f212052	0.6293994
39	0xbe165919	-0.14682426
40	0xbdee3321	-0.11630846
41	0x3e974f53	0.29552707
42	0x3e7a5eef	0.24450277
43	0x3f136a3d	0.5758398
44	0xbf98100f	-1.1879901
45	0xbfa4f1b3	-1.2886261
46	0xbe147220	-0.1449666
47	0x3d873ceb	0.06603416
48	0x3bdf2d2d	0.0068108053
49	0xbf0a4ed1	-0.54026514
50	0xbe76b05c	-0.24090713
51	0xbebe6e26	-0.37193412
52	0x3b455006	0.0030107512
53	0x3e96f58f	0.2948422
54	0x3e33ad84	0.1754666
55	0xbebabf17	-0.36473915
56	0x3e3720df	0.17883633
57	0xbf118e24	-0.56857514
58	0xbf1cfd55	-0.61324054
59	0x3e2cf7af	0.16891359
60	0x3e41bee0	0.1892047
61	0xbcdc97ad	-0.026927793
62	0xbd822cc3	-0.06356194
63	0xbde18d24	-0.110132486
64	0x3f37a70f	0.71739286
65	0x3ef494d0	0.47769785
66	0xbe554e27	-0.20830594
67	0x3e395737	0.18099676
68	0x3f5ec27e	0.8701552
69	0x3ee16933	0.44025573
70	0xbe31675b	-0.17324583
71	0xbe99b206	-0.30018634
72	0x3dfb39d5	0.1226689
73	0xbe968a4c	-0.29402387
74	0xbd126fe3	-0.035751235
75	0x3eab7856	0.33490247
76	0xbdb0c8e5	-0.086320676
77	0xbe9bf5fc	-0.3046111
78	0xbf595196	-0.84890115
79	0xbe8b8fea	-0.27258235
80	0xba705589	-0.0009168019
81	0x3e879670	0.26481962
82	0xbe7a31c8	-0.24433053
83	0xbe9a2bc7	-0.30111524
84	0x3e22df7f	0.1590557
85	0x3e80591f	0.25067994
86	0x3e19eacb	0.15030973
87	0x3e3777c4	0.1791678
88	0xbe14cbe4	-0.14530903
89	0x3f2629ec	0.6490772
90	0x3ea0fc16	0.31442326
91	0xbe2b9e2a	-0.16759554
92	0x3ec7edff	0.39048764
93	0xbeb82035	-0.35962072
94	0x3dade74e	0.084913835
95	0xbc23847d	-0.009980318
96	0x3e286d4e	0.16447946
97	0xbf3f5e20	-0.74753
98	0x3c9b4011	0.018951448
99	0x3ef2445e	0.47317785
100	0xbf23ab8c	-0.63933635
101	0xbe389d4d	-0.18028755
102	0xbecf66dd	-0.40508166
103	0xbe19e76c	-0.15029687
104	0x3e86f5fe	0.26359552
105	0x3f43cfed	0.76489145
106	0x3df24c79	0.11830992
107	0xbe417579	-0.18892469
108	0xbec86c60	-0.39145184
109	0x3e941376	0.28921098
110	0x3e678e58	0.22612894
111	0xbeb007bf	-0.3438091
112	0xbeb16bc6	-0.34652537
113	0xbda4ccc0	-0.080468655
114	0xbe792382	-0.24329951
115	0x3de8e6ce	0.113721475
116	0x3e2a8fd1	0.16656424
117	0x3ebb5319	0.36586836
118	0xbe966c7c	-0.29379642
119	0xbe8278be	-0.25482744
120	0xbf0e1eaf	-0.5551557
121	0x3f054c0b	0.5206916
122	0xbe8ccb4e	-0.2749886
123	0xbe633cf4	-0.2219122
124	0xbc751071	-0.014957533
125	0xbdf032d2	-0.11728443
126	0x3edeaf9a	0.43493348
127	0xbee7624e	-0.45192188
128	0x3e38a77f	0.18032645
129	0xbd7e8a03	-0.062143337
130	0x3f7278c4	0.94715524
131	0xbe764629	-0.24050201
132	0x3d741c29	0.059597168
133	0x3e34675d	0.17617555
134	0xbf8266d4	-1.0187631
135	0x3e8dc524	0.2768947
136	0x3e516565	0.20448835
137	0xbd84b2ce	-0.06479417
138	0x3e9bcf8d	0.30431786
139	0xbd94f108	-0.072725356
140	0xbeeae4ba	-0.4587763
141	0x3f2d80ef	0.6777486
142	0x3ddb029a	0.106938556
143	0x3d90278c	0.07038793
144	0xbe15db90	-0.14634538
145	0x3e8494ec	0.25894868
146	0x3df56a6e	0.119831905
147	0x3f0eed1c	0.5583055
148	0x3dae3c41	0.08507586
149	0xbeed6978	-0.4636953
150	0xbf164bc0	-0.58709335
151	0xbe659abd	-0.22422309
152	0xbf099990	-0.5374994
153	0x3e816a00	0.25276184
154	0x3e27fafc	0.16404337
155	0xbe349559	-0.17635097
156	0xbf0784ac	-0.52936816
157	0x3d5b7249	0.053575788
158	0x3f065f01	0.52488714
159	0xbe92b1c4	-0.2865125
160	0x3e67f808	0.2265321
161	0xbcf9fce6	-0.0305161
162	0xbd86b1bd	-0.0657687
163	0xbf5203af	-0.8203687
164	0xbe42fd8f	-0.19042037
165	0x3ddcc22e	0.10779224
166	0xbd96ebbd	-0.07369182
167	0xbf4096e6	-0.7523025
168	0xbe16b47e	-0.1471729
169	0x3f618a2e	0.8810147
170	0xbef3c9c4	-0.47614872
171	0x3f806af3	1.0032638
172	0x3d2ca250	0.04214698
173	0x3df8bf65	0.121458806
174	0xbe9717c2	-0.29510313
175	0xbf49089e	-0.78528774
176	0x3db15770	0.086592555
177	0x3ec22fc0	0.37927055
178	0x3ea642a6	0.32472724
179	0xbd91e9ac	-0.071246475
180	0xbe64546a	-0.22297826
181	0x3dbcbed1	0.09216083
182	0x3ea3afc3	0.31970033
183	0x3e91db26	0.2848751
184	0x3e23a98a	0.15982643
185	0xbd128c5f	-0.0357784
186	0xbf355c1d	-0.7084368
187	0xbda793cb	-0.08182486
188	0xbe4bb08f	-0.1989157
189	0x3d4df2bd	0.05028032
190	0x3ebcd14c	0.3687843
191	0x3e1cf8fb	0.15329354
192	0x3e183f1f	0.14867829
193	0x3b84a97d	0.004048525
194	0x3e691d4d	0.22765084
195	0x3dbe06ef	0.09278666
196	0xbf12f654	-0.57407117
197	0xbef89bc3	-0.48556337
198	0x3f8b7d38	1.0897589
199	0x3f05c5ba	0.5225483
200	0xbc63e4a6	-0.0139094945
201	0xbe7e89dc	-0.24857277
202	0xbefcc60d	-0.4936985
203	0x3f60a58a	0.8775259
204	0x3ca719fa	0.020398129
205	0xbe5c45a2	-0.21510938
206	0x3ebfa88e	0.37433285
207	0xbf2478b3	-0.6424667
208	0x3eb90214	0.36134398
209	0xbe24ed25	-0.16106088
210	0xbee89642	-0.45427138
211	0x3c9829f7	0.018574698
212	0x3d2837f2	0.04106898
213	0xbda7a3aa	-0.08185513
214	0xbe29976c	-0.16561669
215	0x3ed8db20	0.4235468
216	0x3ec6376a	0.38714153
217	0x3f3c2e0a	0.7350775
218	0xbe884b76	-0.26620072
219	0xbf08cd97	-0.53438705
220	0xbdc3bbbd	-0.095572926
221	0x3e4d7985	0.20065887
222	0x3e707363	0.23481517
223	0x3eeea52f	0.466104
224	0xbe47a962	-0.19498208
225	0x3f0634da	0.52424395
226	0xbe40124b	-0.18756978
227	0xbf20b344	-0.6277354
228	0xbe8e1eb7	-0.2775781
229	0xbe88ba0a	-0.26704437
230	0x3e2b7d5f	0.16747044
231	0x3f0aa64a	0.54159987
232	0xbf2b6cb9	-0.6696277
233	0xbeb4ebc3	-0.35336122
234	0xbf01754c	-0.50569606
235	0xbe8fb224	-0.28065598
236	0x3d5e5f15	0.054289896
237	0xbebb8c89	-0.36630657
238	0xbeb352df	-0.35024163
239	0x3ed865ab	0.42265067
240	0xbd9ff2c5	-0.078099765
241	0x3db61c76	0.08892147
242	0x3e9e2269	0.30885628
243	0xbf153b10	-0.5829325
244	0x3f2c3ed8	0.6728339
245	0xbf4f1c65	-0.809027
246	0x3e7e48fe	0.24832532
247	0x3d96899b	0.07350465
248	0xbe852649	-0.26005772
249	0x3d624ca6	0.05524888
250	0xbef5fd39	-0.48044756
251	0xbf53baa0	-0.8270664
252	0x3ed1fffb	0.4101561
253	0x3ec1793e	0.37787813
254	0x3f0b53d1	0.5442477
255	0x3e4d1471	0.20027329

mid_part.0.bias f4 [12]
0	0xbb7d0d48	-0.0038612653
1	0x3be62c18	0.0070242994
2	0xba1f2c1f	-0.0006071943
3	0x3bb65519	0.0055643436
4	0xba022c0a	-0.0004965669
5	0x39addce7	0.00033161716
6	0x3b326625	0.0027221527
7	0xbb84cfb4	-0.0040530805
8	0x3b215045	0.0024614495
9	0xbb44b633	-0.0030015826
10	0xbb89d2ac	-0.0042060222
11	0xbb2df6cf	-0.0026544814

mid_part.1.weight f4 [12]
0	0x3ec00bdc	0.37509048
1	0x3e831440	0.25601387
2	0x3e7780d5	0.2417024
3	0x3e847153	0.2586771
4	0x3f11bb1f	0.5692615
5	0x3ea6c693	0.32573375
6	0x3e84e29c	0.2595414
7	0x3e840685	0.25786224
8	0x3e7c2aeb	0.24625747
9	0x3e7e4523	0.24831061
10	0x3ec29a77	0.38008472
11	0x3f583b68	0.84465647

mid_part.2.weight f4 [12, 12, 3, 3]
0	0x3cb4e455	0.022081533
1	0x3e574b9d	0.21024938
2	0xbcd6c329	-0.026216106
3	0xbe31cf63	-0.17364268
4	0x3e926543	0.28592882
5	0x3dc4c3df	0.09607672
6	0x3ca6818f	0.02032545
7	0xbc1a602e	-0.009422345
8	0xbb3d5f87	-0.002889605
9	0x3e548d61	0.20757057
10	0xbe25cd3d	-0.16191573
11	0xbddeb2c9	-0.10873944
12	0x3df23bf0	0.118278384
13	0xbdfe46cc	-0.12415847
14	0xbd9d4a65	-0.07680205
15	0xbdbf1a01	-0.09331132
16	0xbdc69ad7	-0.09697502
17	0x3d8e269c	0.06940958
18	0xbce86b48	-0.028371468
19	0xbcd6cf2b	-0.026221832
20	0xbd152c49	-0.036419187
21	0xbe35fa80	-0.1777134
22	0x3da182bb	0.07886263
23	0xbd12881c	-0.035774335
24	0x3cce2ebd	0.02516877
25	0xbb8019ca	-0.0039093243
26	0x3e8b0280	0.27150345
27	0xbdd90742	-0.105970874
28	0x3bb192d8	0.0054191165
29	0x3dce20d5	0.10064856
30	0xbc8f9954	-0.017529167
31	0xbdf8f707	-0.12156492
32	0x3df30755	0.11866633
33	0xbc06dbb2	-0.00823109
34	0xbcc853f8	-0.024454102
35	0xbdbe7408	-0.09299475
36	0xbe6c55b8	-0.23079574
37	0x3df285cb	0.11841925
38	0xbe1c4d84	-0.15263945
39	0x3dadfbcf	0.08495294
40	0x3d753cf9	0.0598726
41	0xbc96ee02	-0.018424038
42	0xbe33526f	-0.17511915
43	0xbd338222	-0.043825276
44	0xbdfc0ac0	-0.12306738
45	0x3df1b9af	0.118029945
46	0x3e0f2972	0.13980654
47	0x3dce4f65	0.10073737
48	0xbdeed54d	-0.11661778
49	0xbe86c187	-0.26319525
50	0x3e22e742	0.1590853
51	0x3e810e52	0.25206238
52	0x3d4cfa80	0.050043583
53	0xbdb2a4f9	-0.08722872
54	0xbd183314	-0.037158087
55	0xbacdf715	-0.0015713895
56	0x3de67861	0.11253429
57	0x3dcda93a	0.10042043
58	0x3bd2491a	0.006417406
59	0xbd7e8656	-0.06213983
60	0xbda91b97	-0.082572155
61	0x3e1ac002	0.15112308
62	0x3d1a33b5	0.037646968
63	0x3cf7bb5a	0.030240703
64	0xbe17c9ad	-0.14823027
65	0xbe9b881d	-0.30377284
66	0x3dba54f4	0.09098235
67	0x3db1f776	0.086897776
68	0x3d2e04d4	0.042485073
69	0xbdaca9c1	-0.084308155
70	0xbe840e4e	-0.25792164
71	0x3c2a868b	0.010408054
72	0x3e1e10ab	0.15436046
73	0xbd09f660	-0.033682227
74	0xbc1684a8	-0.009186901
75	0x3db64c44	0.08901265
76	0x3d364d09	0.04450706
77	0x3e0e23b6	0.1388081
78	0x3dcddbf8	0.10051721
79	0x3d711570	0.058858335
80	0xbe3b5a65	-0.18296202
81	0xbe298a0b	-0.16556565
82	0xbe8ebd3d	-0.27878752
83	0x3d8e621f	0.06952309
84	0x3d409c1d	0.04702388
85	0xbd82c8a2	-0.06385924
86	0x3db9c8d4	0.09071508
87	0xbd0189a3	-0.0316254
88	0x3e41f820	0.18942308
89	0xbdcbfe1b	-0.09960576
90	0xbe37362e	-0.17891762
91	0xbdb24053	-0.08703675
92	0x3debaa65	0.115071096
93	0x3e0b1db2	0.13585547
94	0xbe7de7eb	-0.24795501
95	0x3e3982ba	0.18116274
96	0x3e701a0a	0.23447433
97	0x3c0e2930	0.008676812
98	0xbd499e81	-0.049223427
99	0x3e0f91c0	0.14020443
100	0xbcea0c7a	-0.028570402
101	0xbca72076	-0.02040122
102	0xbe464305	-0.19361503
103	0x3b51baae	0.003200214
104	0xbe291daa	-0.16515222
105	0xbcb9e81f	-0.022693692
106	0x3d50e48c	0.05099921
107	0x3beeca38	0.00728729
108	0xbd9c4fff	-0.076324455
109	0x3d3d38fd	0.046196926
110	0xbd88e5ba	-0.06684442
111	0x3e5db8dc	0.2165255
112	0xbd964719	-0.073377796
113	0xbd0a66e2	-0.033789523
114	0xbce805aa	-0.028323013
115	0xbea3b808	-0.31976342
116	0xbdbd5aa6	-0.092458054
117	0xbdc60b93	-0.09670176
118	0x3e609e7d	0.21935458
119	0x3dcf3916	0.1011831
120	0x3c96e52f	0.01841983
121	0x3e6579c2	0.22409728
122	0x3d0a4aa1	0.033762578
123	0xbd157a18	-0.03649339
124	0x3e561c98	0.20909345
125	0xbe2df252	-0.16986969
126	0xbbf4443a	-0.0074544223
127	0xbe474375	-0.19459327
128	0x3d4a2d78	0.04935977
129	0xbe75607f	-0.23962592
130	0x3d82b4d6	0.06382148
131	0x3c619ad1	0.013769821
132	0xbe18a7f6	-0.14907822
133	0xbc8629b1	-0.016377302
134	0xbdbb3c80	-0.09142399
135	0xbd492dc6	-0.04911592
136	0x3df4ef69	0.11959726
137	0xbe1396cc	-0.14412993
138	0x3e2cf504	0.16890341
139	0x3d0c6d39	0.03428385
140	0xbdbc8f19	-0.09206981
141	0x3e9c7eb9	0.30565432
142	0xbd9ef35e	-0.07761262
143	0xbcd652d3	-0.02616254
144	0xbdadc7df	-0.08485388
145	0xbe1851e8	-0.14874995
146	0xbd784851	-0.06061584
147	0x3d76eeea	0.06028644
148	0x3e4c5771	0.19955231
149	0x3db80f89	0.08987338
150	0xbd485ccb	-0.04891662
151	0x3da9cb6e	0.08290754
152	0xbdc9d59b	-0.09855195
153	0xbe212651	-0.15737273
154	0xbc829784	-0.015941389
155	0x3d4236ff	0.04741573
156	0xbe7cfbf0	-0.24705482
157	0x3e03ef1a	0.12884179
158	0x3d725236	0.059160434
159	0x3e179ae9	0.14805187
160	0xbd6f30b2	-0.05839605
161	0xbd2c7ee5	-0.042113204
162	0xbbaa5779	-0.005198416
163	0x3d6df4ef	0.058094915
164	0x3dcc3443	0.09970906
165	0x3ec6766b	0.3876222
166	0x3d1635f4	0.036672547
167	0xbe3be89a	-0.18350449
168	0xbe20b238	-0.15692985
169	0xbe3830aa	-0.17987314
170	0x3e46b2ad	0.19404097
171	0x3dc4b21b	0.096042834
172	0x3db4d446	0.088295504
173	0xbe712002	-0.23547366
174	0x3df24bbd	0.11830852
175	0xbd0c7ccc	-0.034298703
176	0x3d66557a	0.05623386
177	0x3d0f3129	0.034958992
178	0x3d5907a2	0.052985795
179	0xbd9244ca	-0.07142027
180	0xbdc65cd7	-0.096856765
181	0x3de76305	0.11298183
182	0xbe511f7c	-0.20422167
183	0x3e5288c6	0.20559987
184	0xbd6b3299	-0.0574213
185	0xbc9908b8	-0.018680915
186	0x3e300033	0.17187576
187	0xbe3b94af	-0.18318437
188	0x3cce3eb0	0.025176376
189	0x3d4b5b46	0.049647592
190	0x3b147f0b	0.0022658731
191	0xbe13c78c	-0.1443159
192	0xbda50027	-0.0805667
193	0xbdf95fad	-0.12176452
194	0xbc4f9d4d	-0.012671781
195	0xbe746a2a	-0.23868623
196	0x3c36bc51	0.011153297
197	0x3dc207a5	0.09474114
198	0xbd592cfb	-0.053021412
199	0xbe217763	-0.15768199
200	0xbe081434	-0.13288957
201	0xbb093245	-0.0020934504
202	0xbdb25b4a	-0.08708818
203	0xbddb1bd2	-0.10698666
204	0x3de31ac6	0.11089091
205	0xbc8218f5	-0.015881041
206	0xbddf91a3	-0.1091645
207	0x3e35fcf3	0.17772274
208	0xbd60d6bd	-0.05489229
209	0xbe4392d6	-0.19098982
210	0x3dd915a5	0.105998315
211	0x3d09a84d	0.03360777
212	0x3df20a3e	0.1181836
213	0x3e3a9edb	0.18224661
214	0x3daf02b5	0.08545438
215	0xbe349d9f	-0.17638253
216	0xbe4b3c90	-0.19847322
217	0x3d8836c8	0.06651074
218	0x3d20f9c0	0.03930068
219	0x3d8768c5	0.0661178
220	0xbbe6234e	-0.0070232516
221	0xbe342c1c	-0.17594951
222	0x3de75243	0.11294987
223	0xbb5fc82a	-0.0034146407
224	0xbc34a64e	-0.011025978
225	0x3c46ddb8	0.012137823
226	0x3e07cb9f	0.13261269
227	0x3d0ba0bd	0.03408884
228	0x3db00fb3	0.085967444
229	0xbdc52ae4	-0.09627321
230	0xbc73f85b	-0.0148907555
231	0xbdd8fd47	-0.10595184
232	0xbcfc07ef	-0.030765502
233	0x3dd182f9	0.10230059
234	0xbe96be17	-0.29441902
235	0x3e4b7b4e	0.19871256
236	0x3e4cc935	0.1999863
237	0xbd87c3c9	-0.0662914
238	0xbd95ca4e	-0.07313977
239	0x3d45af55	0.048262913
240	0x3dd65d8d	0.10467062
241	0xbe1ee95a	-0.15518704
242	0x3db04173	0.086062334
243	0x3e26b11d	0.16278501
244	0xbe19224b	-0.14954488
245	0xbd5d26d4	-0.053992108
246	0xbe4e2ff3	-0.20135479
247	0xbe272617	-0.16323124
248	0xbdd47e89	-0.10375697
249	0xbda5f3bf	-0.081031315
250	0xbd8e56c0	-0.0695014
251	0x3e0f2d33	0.13982086
252	0x3d1f529e	0.03889715
253	0x3e3042b4	0.17212945
254	0xbbf83652	-0.007574835
255	0xbe124736	-0.14284977

mid_part.2.bias f4 [12]
0	0xbc108e0d	-0.00882293
1	0x3c29916e	0.010349615
2	0xbbfcae1e	-0.007711186
3	0xbba6cb2d	-0.0050901384
4	0xbbfc2a2e	-0.007695458
5	0x3b670a83	0.0035254068
6	0xba8ec587	-0.0010892608
7	0xbc09e4e0	-0.008416384
8	0x3b35530c	0.0027667908
9	0xba473ac6	-0.00076000055
10	0x3b3888fd	0.0028157823
11	0xbb7a058a	-0.0038150274

mid_part.3.weight f4 [12]
0	0x3e89f95b	0.26948056
1	0x3e83de5d	0.25755587
2	0x3e85c442	0.26126295
3	0x3e733a20	0.23752642
4	0x3e975cfd	0.29563132
5	0x3e7864cd	0.24257202
6	0x3e8400b9	0.257818
7	0x3e5d6113	0.21619062
8	0x3e93fa0c	0.28901708
9	0x3ed45d68	0.41477513
10	0x3e913a45	0.2836477
11	0x3e83b671	0.2572513

mid_part.4.weight f4 [12, 12, 3, 3]
0	0xbd195cb3	-0.03744192
1	0x3d1d3c4b	0.038387578
2	0x3c8eaab4	0.017415382
3	0xbd0b185b	-0.033958774
4	0x3e408992	0.18802479
5	0x3dae12ea	0.08499701
6	0x3e103514	0.14082748
7	0xbc584ca0	-0.013201863
8	0x3d9c444d	0.07630215
9	0xbea6450a	-0.32474548
10	0x3d30b641	0.04314256
11	0xbe38ad4f	-0.18034862
12	0x3e7d2bb2	0.247237
13	0x3d01e624	0.03171362
14	0x3e2582ef	0.16163228
15	0x3e040cc7	0.12895499
16	0xbd827f13	-0.06371894
17	0xbded825f	-0.11597132
18	0xbbaf7a95	-0.005355189
19	0x3d54f887	0.051994827
20	0x3e407fa2	0.18798688
21	0xbe521974	-0.20517522
22	0xbcc30313	-0.023805177
23	0x3ba3fe4b	0.0050046793
24	0x3c046cc3	0.008082571
25	0x3de0696b	0.10957607
26	0x3d4934a8	0.049122483
27	0xba97a122	-0.0011568407
28	0xbd6075bd	-0.054799784
29	0xbdfbb9fb	-0.12291332
30	0xbda3b9d1	-0.07994426
31	0x3e71be0a	0.2360765
32	0x3e4f0976	0.20218453
33	0x3e915435	0.28384557
34	0x3c53cd1d	0.012927321
35	0x3e2d8099	0.16943587
36	0x3e8a436c	0.27004564
37	0x3e05e611	0.13076045
38	0xbe425ad5	-0.18979962
39	0xbd3e3873	-0.046440553
40	0xbe6a0f1f	-0.2285733
41	0x3e1253cd	0.1428978
42	0x3c871639	0.016490089
43	0x3e7a0ffd	0.24420162
44	0xbe5bb1ea	-0.21454588
45	0x3cc3eed8	0.0239176
46	0x3d5eb65d	0.054373134
47	0x3e6ff351	0.23432662
48	0xbc15fa80	-0.009153962
49	0x3d535a8b	0.05160002
50	0xbbdd526a	-0.0067542093
51	0x3d5fb004	0.05461122
52	0xbd510205	-0.051027317
53	0xbdb50b9c	-0.08840105
54	0xbdc9f621	-0.098613985
55	0xbdd1bc4b	-0.10240992
56	0xbcee6ac4	-0.029103644
57	0xbd90fc4a	-0.0707937
58	0xbe87d5ed	-0.265304
59	0x3da03333	0.078222655
60	0x3e4da24f	0.20081447
61	0x3ddf3ae0	0.108999014
62	0xbcd7b5a8	-0.026331738
63	0x3e158997	0.14603268
64	0xbd6c5e11	-0.057706896
65	0x3e00aa0f	0.12564872
66	0x3cdc6266	0.026902389
67	0x3e20a4cd	0.15687867
68	0xbe6e6d2f	-0.23283838
69	0x3cd98536	0.026552778
70	0xbe6c699a	-0.23087159
71	0x3e4e1284	0.2012425
72	0x3dcf04bb	0.10108324
73	0xbd75b4da	-0.059986927
74	0x3e033125	0.12811716
75	0x3e501a31	0.20322491
76	0xbcd11d09	-0.02552654
77	0xbdde6daf	-0.10860764
78	0x3c32ad73	0.010905611
79	0xbe8d843e	-0.27639955
80	0x3d70768a	0.058706798
81	0x3d5d60e1	0.05404747
82	0xbd125ca0	-0.035732865
83	0xbd2f78ad	-0.042839695
84	0x3e8c8e13	0.27452144
85	0x3d8d117c	0.068881005
86	0x3cabe68d	0.020983959
87	0xbccf8d83	-0.025336033
88	0xbd385594	-0.04500349
89	0x3de6ce26	0.112697884
90	0xbe18133d	-0.14851089
91	0x3e00b1e7	0.12567864
92	0xbe2a6f55	-0.16644032
93	0xbe1e2172	-0.15442446
94	0x3d3c9f2b	0.046050232
95	0x3e1342a3	0.14380889
96	0x3d4f1b62	0.050563224
97	0x3e68224f	0.22669338
98	0x3d137249	0.035997663
99	0x3e0fe83d	0.14053436
100	0xbdcb3de3	-0.09923913
101	0x3d92607f	0.071473114
102	0xbd97ab68	-0.0740574
103	0xbdcc03a0	-0.09961629
104	0x3d88ee25	0.066860475
105	0x3d00f168	0.031480223
106	0x3b886430	0.004162334
107	0x3c1890ab	0.009311835
108	0xbe151842	-0.14560035
109	0x3e067388	0.13130009
110	0x3d5a7f79	0.053344224
111	0xbdd7a1ee	-0.105289325
112	0x3ebba0c5	0.36646095
113	0x3e4ecbec	0.20194978
114	0x3c7eadde	0.015544383
115	0x3d9460ec	0.07245049
116	0x3e9cea45	0.30647483
117	0x3e1b6638	0.15175712
118	0x3d55d929	0.052209053
119	0xbcb78dce	-0.022406485
120	0x3e4feaf3	0.2030447
121	0xbdcd2194	-0.1001617
122	0x3dcb1ffd	0.09918211
123	0x3e2cc7cd	0.16873093
124	0xbd94f2a9	-0.07272846
125	0x3e40af81	0.1881695
126	0xbb407ca0	-0.0029371157
127	0x3e318198	0.17334592
128	0x3db17490	0.08664811
129	0x3b608573	0.003425923
130	0x3e93c0ef	0.28858134
131	0x3cde074d	0.02710309
132	0x3e7a9c55	0.24473698
133	0x3e0c3f12	0.13695934
134	0xbe345909	-0.17612089
135	0x3d4c00b3	0.049805354
136	0x3d74a75c	0.05972992
137	0x3cd4add5	0.025961796
138	0xbd009cab	-0.03139941
139	0x3caf76ce	0.021418955
140	0x3e5d7840	0.21627903
141	0x3e04ca75	0.12967856
142	0x3c91dcfd	0.01780557
143	0x393dc6fd	0.00018098573
144	0xbd95ddc0	-0.07317686
145	0xbe87e77a	-0.2654379
146	0x3bc89358	0.0061210804
147	0x3cffb108	0.031212345
148	0xbe397ff9	-0.18115224
149	0x3d6374d4	0.055531338
150	0x3e870b27	0.26375696
151	0xbbd8ed0f	-0.0066200565
152	0xbdaef2d2	-0.08542408
153	0x3d79779d	0.060905088
154	0xbde9af6a	-0.11410411
155	0x3cae86fb	0.021304598
156	0x3e0e6c38	0.1390847
157	0xbd0a88e4	-0.033821955
158	0x3dec8f1f	0.11550736
159	0xbe0ecd1d	-0.13945432
160	0x3d61e375	0.05514856
161	0x3d27b4ca	0.0409439
162	0xbccbddcd	-0.024886036
163	0xbcc64d29	-0.024206715
164	0x3d2f332f	0.04277342
165	0xbe20a618	-0.1568836
166	0xbdf9f6b1	-0.12205256
167	0xbcf2ff3c	-0.02966272
168	0x3dca29eb	0.098712765
169	0x3e21e4c7	0.15809928
170	0x3e8f200d	0.2795414
171	0xbe306246	-0.17224988
172	0x3dea6f81	0.11447049
173	0x3d9ae782	0.07563688
174	0x3d4cd1f7	0.050004926
175	0xbd165392	-0.036700793
176	0x3d6e513e	0.058182947
177	0x3d0637db	0.03276811
178	0xbdde8163	-0.10864522
179	0xbd99f3b2	-0.07517184
180	0xbdb318b9	-0.0874495
181	0xbdc6f730	-0.09715116
182	0xbca13e28	-0.019682959
183	0xbc8e4c93	-0.017370498
184	0xbd3c14e1	-0.04591835
185	0x3d7dea69	0.06199113
186	0x3d8b3684	0.067975074
187	0x3e22ea92	0.15909794
188	0x3d2c1ef0	0.04202169
189	0xbe40c0b1	-0.18823506
190	0xbdd2cff5	-0.10293571
191	0x3d9f15c1	0.07767821
192	0xba942917	-0.001130375
193	0xbe1f364e	-0.1554806
194	0x3ce7b68c	0.028285287
195	0xbd0c5f73	-0.034270715
196	0xbb575f4a	-0.0032863193
197	0x3e2880b2	0.16455343
198	0xbce6fcd2	-0.028196726
199	0x3d5249d4	0.05133994
200	0xbe56cf93	-0.20977621
201	0x3db6abb9	0.08919472
202	0xbd3fc117	-0.046815004
203	0xbdcd4f90	-0.10024941
204	0xbdd3e0e6	-0.1034563
205	0x3e0580c3	0.130374
206	0x3e4bd36a	0.19904867
207	0xbe8869d7	-0.2664325
208	0xbe069891	-0.13144137
209	0x3dad6b5d	0.084677435
210	0x3d2338c0	0.039849043
211	0x3e50390f	0.20334266
212	0x3e6c29d6	0.23062834
213	0xbd60df8c	-0.05490069
214	0xbe479bca	-0.19493023
215	0x3e305d7f	0.17223166
216	0xbd7ddbdd	-0.061977256
217	0x3c9b1a87	0.018933548
218	0x3e18e159	0.14929713
219	0xbe11f733	-0.14254455
220	0x3d8a52ca	0.06754072
221	0x3e001b06	0.12510309
222	0xbd97c4d1	-0.074105866
223	0xbc1b6eba	-0.0094868485
224	0x3dcd42df	0.1002252
225	0x3d19f6ef	0.03758901
226	0x3dea185d	0.11430428
227	0xbd6e11c5	-0.058122415
228	0xbe0f0818	-0.13967931
229	0xbef78d47	-0.48349974
230	0xbcf8eee1	-0.030387344
231	0x3d2afb96	0.041743837
232	0x3d201ef4	0.03909202
233	0xbd405cbe	-0.046963446
234	0xbe90cd98	-0.28281856
235	0xbe2327f7	-0.15933214
236	0x3dd07ba8	0.101798356
237	0x3d7e92dd	0.06215178
238	0xbe023276	-0.12714562
239	0xbe86ec99	-0.26352385
240	0x3d71de83	0.059050094
241	0x3e880889	0.26569012
242	0xbd4262cc	-0.0474575
243	0xbe03f826	-0.1288763
244	0xbe635ec0	-0.22204113
245	0xbdb12e51	-0.08651412
246	0xbddf2dfb	-0.10897442
247	0xbe324cac	-0.1741206
248	0x3e456ad4	0.19279033
249	0x3e18a28c	0.14905757
250	0xbd207d10	-0.03918177
251	0x3e4bb47f	0.19893073
252	0xbd6b899f	-0.057504293
253	0xbe527d32	-0.2055557
254	0x3de5cf94	0.11221233
255	0xbc10e528	-0.008843698

mid_part.4.bias f4 [12]
0	0x3c40e0aa	0.011772314
1	0x3c4d2777	0.012521616
2	0xba184571	-0.00058086874
3	0x3a335f2f	0.00068424916
4	0x3b82072d	0.0039681406
5	0xbaa832e8	-0.0012832554
6	0x3b2c34e3	0.002627664
7	0xba37094c	-0.00069822813
8	0xbb853bb0	-0.004065953
9	0x3b489d8b	0.003061148
10	0x3a8221f8	0.0009928336
11	0xbb604077	-0.0034218112

mid_part.5.weight f4 [12]
0	0x3ef845eb	0.48490843
1	0x3e9845ed	0.2974085
2	0x3f3704e9	0.7149187
3	0x3ea380ce	0.31934208
4	0x3e7afea9	0.24511208
5	0x3e87bc1e	0.2651071
6	0x3e8f4641	0.27983287
7	0x3e9cdf5d	0.30639163
8	0x3f6981a4	0.9121344
9	0x3e84031e	0.25783628
10	0x3eb545bd	0.3540477
11	0x3e7bb5bf	0.2458105

mid_part.6.weight f4 [12, 12, 3, 3]
0	0x3e49fb1d	0.19724698
1	0x3e674c75	0.2258776
2	0x3c000bef	0.007815345
3	0xbdd584e1	-0.10425735
4	0xbe2e09ca	-0.16995922
5	0x3c8ed8dd	0.017437393
6	0x3b26ce84	0.0025452683
7	0x3e43fbc6	0.19139013
8	0x3e726f69	0.23675312
9	0x3da6015a	0.081057265
10	0x3ea8ff39	0.3300722
11	0xbea51c93	-0.32248363
12	0xbdd228a3	-0.10261657
13	0xbdbca1a2	-0.092105165
14	0x3da97214	0.08273712
15	0xbd51caf1	-0.05121893
16	0xbc88dc24	-0.016706534
17	0x3d3c6eea	0.046004213
18	0x3c4c42ba	0.012467081
19	0x3eaf0e55	0.34190622
20	0x3d1759f8	0.036951035
21	0xbe25e6b9	-0.16201295
22	0x3e404250	0.18775296
23	0x3db34d14	0.08754936
24	0x3ca90bab	0.020635447
25	0xbe56a233	-0.20960312
26	0x3e56ebc0	0.20988369
27	0x3c9553f0	0.018228501
28	0xbc709210	-0.0146832615
29	0x3db5e67c	0.08881852
30	0x3de02520	0.10944581
31	0xbea1c1ea	-0.31593257
32	0xbdd8f1d9	-0.10593004
33	0xbe1f65a3	-0.15566115
34	0xbc9d496a	-0.019200046
35	0xbe7de90f	-0.24795936
36	0xbe3a765d	-0.18209215
37	0x3e30ceb2	0.17266348
38	0xbd193e47	-0.037412908
39	0xbc38d677	-0.011281601
40	0xbda1ea3a	-0.07906003
41	0xbc278f1d	-0.010226992
42	0xbc0f5d26	-0.008750236
43	0xbe047c59	-0.1293806
44	0xbd84d585	-0.06486038
45	0xbcdc2f8b	-0.026878139
46	0xbdbd7a48	-0.09251839
47	0x3de0bf7e	0.10974024
48	0x3dfff147	0.12497192
49	0xbdd22e8c	-0.10262784
50	0x3e50083e	0.20315644
51	0x3e2bd3e3	0.16780047
52	0xbd4e056a	-0.050298132
53	0x3cb30fbe	0.021858092
54	0xbe5d1399	-0.21589507
55	0x3e2362bd	0.15955634
56	0x3e22d00d	0.15899678
57	0x3daf28e6	0.08552723
58	0xbe4867e6	-0.19570884
59	0xbe2b91e9	-0.16754879
60	0xbe3851d0	-0.17999959
61	0x3e2e083a	0.16995326
62	0x3dab1857	0.08354252
63	0x3e256f41	0.16155721
64	0x3dc739f8	0.097278535
65	0x3d2412b7	0.04005691
66	0xbdaea915	-0.085283436
67	0xbe8fd8d8	-0.28095126
68	0x3b1ec2c1	0.002422497
69	0x3cdbe006	0.026840221
70	0x3966b077	0.00022000248
71	0xbd748ef4	-0.059706643
72	0xbc1ed517	-0.009694359
73	0xbd9f0d07	-0.07766157
74	0x3de12bcb	0.10994681
75	0xbdcea379	-0.10089774
76	0x3d5dab32	0.054118343
77	0xbd60c5ef	-0.054876264
78	0xbd27bc1a	-0.040950872
79	0x3e460c9e	0.1934075
80	0xbe2c7d49	-0.16844667
81	0xbe6bf49c	-0.2304253
82	0xbe0492a7	-0.12946568
83	0x3e9ec650	0.31010675
84	0x3d5170e1	0.05113304
85	0xbc827188	-0.015923277
86	0x3e4a271c	0.19741482
87	0xbd9cf02d	-0.076629974
88	0xbc832c24	-0.016012259
89	0x3e210ea2	0.15728238
90	0xbdec98a8	-0.11552554
91	0x3d0ab7b3	0.033866595
92	0xbe45fc24	-0.19334465
93	0x3e6b3210	0.22968316
94	0x3c1f56a3	0.009725246
95	0xbe2a648e	-0.16639921
96	0x3d40b036	0.047043048
97	0xbe1bb806	-0.15206918
98	0xbd0fbe28	-0.035093457
99	0xbd32be11	-0.043638293
100	0x3a54ef40	0.0008122809
101	0x3e0be55f	0.13661717
102	0x3d8126e1	0.06306244
103	0xbcaf3c19	-0.021390961
104	0x3d3b34d4	0.045704678
105	0x3d94e43a	0.07270093
106	0xbdcb7f90	-0.0993644
107	0xbd3b8d42	-0.04578901
108	0xbe3d99e5	-0.18515737
109	0xbe2ee903	-0.17081074
110	0xbc4772be	-0.012173353
111	0xbe938b81	-0.2881737
112	0x3d82e18f	0.06390678
113	0xbdafccd4	-0.0858399
114	0xbdabafe7	-0.0838316
115	0x3e4f28f8	0.20230472
116	0xbe70c6a0	-0.2351327
117	0xbdadca47	-0.08485847
118	0xbc893ab7	-0.01675163
119	0x3d9e2edd	0.07723782
120	0x3c66afc9	0.014079996
121	0xbd82083e	-0.06349228
122	0x3e6052f7	0.21906649
123	0xbd979923	-0.074022554
124	0x3e3784cb	0.1792175
125	0xbeb2b527	-0.34903833
126	0xbe060477	-0.1308764
127	0x3cd34299	0.025788592
128	0xbc81f0cb	-0.01586189
129	0x3ed50d8f	0.41611907
130	0xbcf863b4	-0.03032098
131	0x3e21ff56	0.15820059
132	0xbe6b2046	-0.2296153
133	0xbd9c9782	-0.07646085
134	0x3e1e63d1	0.15467764
135	0xbe3d0680	-0.18459511
136	0x3eb6c09b	0.3569382
137	0xbe5744c2	-0.21022323
138	0xbe2d8bed	-0.16947909
139	0x3e3eaa62	0.18619683
140	0xbd4bda46	-0.04976871
141	0x3d93b6d9	0.0721261
142	0xbe02c1cb	-0.12769239
143	0x3d430433	0.047611427
144	0x3da2422f	0.0792278
145	0x3e03662d	0.12831946
146	0x3cb87018	0.022514388
147	0x3d98563e	0.074383244
148	0xbe104bc2	-0.140914
149	0x3c4bb461	0.012433142
150	0xbbb51e0f	-0.005527265
151	0x3e1730c3	0.14764695
152	0xbe2f532e	-0.17121574
153	0x3e2b0b76	0.16703591
154	0xbe04706f	-0.12933515
155	0x3d742aed	0.05961125
156	0x3e02c072	0.12768725
157	0xbe0074c1	-0.12544538
158	0x3e249fb7	0.16076551
159	0x3d06ce2c	0.032911465
160	0xbe69111c	-0.22760433
161	0x3c5c745d	0.013455478
162	0x3c639b4d	0.013892007
163	0xbde0e335	-0.10980836
164	0xbe0f1fde	-0.13977
165	0xbe6d7c8a	-0.23192039
166	0x3ddafafe	0.10692404
167	0x3e2d8d52	0.1694844
168	0xbb8a7f82	-0.004226626
169	0x3e1e1edd	0.15441461
170	0x3b173678	0.0023073237
171	0xbe0b2c50	-0.13591123
172	0xbe057d27	-0.13036023
173	0xbe4fe1f6	-0.20301041
174	0x3df025d4	0.11725965
175	0xbe124aae	-0.142863
176	0x3d98f8b1	0.07469309
177	0xbe171478	-0.14753902
178	0xbe1ac4ad	-0.15114088
179	0x3e6430be	0.22284219
180	0x3e6aac60	0.22917318
181	0xbd146262	-0.036226638
182	0xbda272bc	-0.0793204
183	0x3da6e652	0.08149399
184	0x3b4091ab	0.00293837
185	0x3da831ef	0.08212649
186	0x3c951cdc	0.018202238
187	0x3cfcbf9a	0.030853081
188	0xbd83febb	-0.0644507
189	0x3cf0ba0d	0.02938559
190	0xbdce55ae	-0.10074936
191	0xbdfd33ac	-0.12363371
192	0x3bf206aa	0.0073860483
193	0xbbfbfed1	-0.0076902886
194	0x3c9c318d	0.019066596
195	0x3d3934ca	0.04521636
196	0x3929698f	0.0001615642
197	0xbe3d6a91	-0.18497683
198	0xbe65fcbf	-0.22459696
199	0x3b9a4625	0.004708069
200	0xbe71913e	-0.23590562
201	0x3c866c83	0.016409164
202	0x3dd44672	0.10364999
203	0xbe2a0175	-0.16602118
204	0xbda759b0	-0.081714034
205	0xbde38336	-0.11109011
206	0x3e7b28a7	0.24527226
207	0x3e1b3137	0.15155493
208	0x3e932081	0.28735736
209	0xbe01673d	-0.12637039
210	0xbcd79476	-0.026315909
211	0xbd4a75c4	-0.049428716
212	0x3d6e01de	0.05810725
213	0xbe678c87	-0.226122
214	0xbe12d502	-0.14339069
215	0x3dd68dce	0.10476266
216	0xbe89536a	-0.26821452
217	0xbba90853	-0.005158463
218	0x3d843e0e	0.064571485
219	0x3d3b48b9	0.04572365
220	0xbc70778b	-0.014676939
221	0x3dc6eb9d	0.097129084
222	0x3dade6f9	0.0849132
223	0x3e61f738	0.22066963
224	0x3d830c61	0.063988455
225	0xbe6a423a	-0.22876826
226	0xbda8af43	-0.082365535
227	0x3dedd35d	0.1161258
228	0xbc7f0ba8	-0.015566744
229	0xbc5a5d7a	-0.013327951
230	0xbe19c465	-0.15016325
231	0x3df0c62a	0.11756547
232	0x3d72b142	0.059251077
233	0xbe0e5c06	-0.13902292
234	0xbd55e161	-0.05221689
235	0x3d97d8a5	0.074143685
236	0xbe75e092	-0.24011448
237	0xbc8afccf	-0.016966252
238	0xbc26ac9c	-0.010172989
239	0xbd921914	-0.071336895
240	0xbe02178a	-0.12704292
241	0xbd980e27	-0.07424574
242	0x3d93404b	0.07189997
243	0xbcbbc79a	-0.022922326
244	0xbe1deb1a	-0.15421715
245	0xbe9fd72e	-0.31218857
246	0xbafe29a7	-0.0019391075
247	0xbd829a0e	-0.0637704
248	0x3e0559c5	0.13022526
249	0x3bf632ae	0.0075133657
250	0x3e8f3d65	0.27976528
251	0xbc9280f8	-0.017883763
252	0xbe41798d	-0.18894024
253	0xbe454e01	-0.19268037
254	0x3e0e28cc	0.1388275
255	0xbad4beba	-0.0016231157

mid_part.6.bias f4 [12]
0	0x3c2cbdd9	0.01054331
1	0xbbe4c839	-0.006981876
2	0xba93a041	-0.0011262969
3	0x3b30b27e	0.0026961858
4	0xbb148658	-0.0022663083
5	0x3c27e02a	0.010246316
6	0x3ae918d4	0.0017783889
7	0xbcaa95b1	-0.020823332
8	0x3bfd1d9e	0.007724478
9	0xbc481e8c	-0.012214314
10	0xbae0dc04	-0.0017155414
11	0x3aa86019	0.0012846022

mid_part.7.weight f4 [12]
0	0x3ec73be6	0.38912886
1	0x3e7f6d7b	0.24944107
2	0x3e907a23	0.28218183
3	0x3e983190	0.29725313
4	0x3ef3346f	0.4750094
5	0x3e8a00f8	0.26953864
6	0x3e7d876a	0.24758688
7	0x3e5775b3	0.21040992
8	0x3eb00eb5	0.3438622
9	0x3eb8389b	0.35980687
10	0x3e96b699	0.29436186
11	0x3e9aaae2	0.30208498

mid_part.8.weight f4 [12, 12, 3, 3]
0	0x3d78bfd9	0.060729835
1	0xbdfb21f2	-0.12262334
2	0xbc35246b	-0.011056046
3	0x3d1bea05	0.038064975
4	0x3daf34ba	0.08554979
5	0x3da78b67	0.08180886
6	0xbd59cc24	-0.0531732
7	0x3e23e615	0.16005738
8	0x3defc1dd	0.11706898
9	0xbdd4e032	-0.10394324
10	0xbdb541f0	-0.08850467
11	0x3dd744b2	0.105111495
12	0x3d80dd09	0.06292159
13	0x3dc1108a	0.09426983
14	0x3dfc2ce0	0.12313247
15	0xbe2fc2e2	-0.17164186
16	0xbc70fd9a	-0.014708901
17	0x3cb6bc16	0.022306483
18	0x3dbba166	0.09161644
19	0xbe1158ba	-0.14194003
20	0xbd86da86	-0.06584649
21	0xbe6ab4d4	-0.22920543
22	0xbdc45aac	-0.09587607
23	0xbd4f9c96	-0.05068644
24	0xbdc4a49f	-0.096017115
25	0x3e702754	0.23452502
26	0x3ca59bc9	0.020215886
27	0xbdb64f68	-0.08901864
28	0x3e0fdcf5	0.14049132
29	0xbcb8f0c4	-0.022575743
30	0xbdd53504	-0.104105026
31	0x3d87b371	0.066260226
32	0xbd326ea1	-0.043562535
33	0x3de15710	0.11002934
34	0x3df00f71	0.11721695
35	0x3ea2f9ef	0.3183131
36	0xbddf0c5e	-0.10891031
37	0xbde00341	-0.10938121
38	0xbdbc175f	-0.09184145
39	0xbc421c59	-0.011847579
40	0x3e5ceea6	0.21575412
41	0x3e1619da	0.14658299
42	0x3ec97ba8	0.39352155
43	0xbe811619	-0.25212172
44	0x3dac43c0	0.0841136
45	0xbdeea985	-0.11653427
46	0xbe3a6138	-0.18201149
47	0x3de1e128	0.11029273
48	0x3a8f7027	0.0010943458
49	0x3dbf5b13	0.09343543
50	0x3de6dcf5	0.11272613
51	0xbd1492a6	-0.036272667
52	0x3e6076da	0.21920338
53	0xbd83f781	-0.06443692
54	0x3dc57110	0.096407056
55	0x3e1dc885	0.15408523
56	0x3dfadb6f	0.12248885
57	0xbc9ffab9	-0.019528734
58	0x3e0a1ed0	0.13488317
59	0x3dd819df	0.105518095
60	0xbd6a2e7f	-0.05717325
61	0xbdcffc48	-0.10155541
62	0x3ea1780c	0.315369
63	0x3ddcb1da	0.1077611
64	0x3dff1bab	0.12456449
65	0x3cbb5940	0.022869706
66	0xbd7309c8	-0.0593355
67	0xbe46e9d2	-0.19425133
68	0xbe1ee51c	-0.15517086
69	0x3e2339f4	0.15940076
70	0x3cbc82e7	0.023011638
71	0xbbd07206	-0.006361249
72	0x3e0def0c	0.1386072
73	0xbdaa7209	-0.08322532
74	0x3e17f7c5	0.1484061
75	0xbe815cbf	-0.25266072
76	0x3d565b9e	0.052333467
77	0xbc3c585e	-0.011495678
78	0xbda367d4	-0.07978788
79	0xbe005b7b	-0.12534897
80	0xbb9f8f2c	-0.0048693623
81	0xbe1a1abf	-0.15049265
82	0x3c9b4a43	0.01895631
83	0xbd711a7c	-0.058863148
84	0x3d39b02d	0.04533403
85	0xbe6f6f67	-0.2338234
86	0x3e202fc0	0.15643215
87	0xbeb4825d	-0.3525571
88	0x3e44dff2	0.19226053
89	0x3ead74b9	0.33878115
90	0xbdeda702	-0.1160412
91	0x3ca1fb86	0.019773256
92	0x3e2c968d	0.16854306
93	0x3d69a1d7	0.057039108
94	0x3d7fc6e7	0.062445547
95	0x3c94d5dc	0.018168382
96	0x3d6ebb2f	0.05828398
97	0xbde7846f	-0.113045566
98	0xbdda91d1	-0.106723435
99	0xbdd56ae1	-0.10420776
100	0xbe168b1a	-0.147015
101	0x3d76b552	0.060231514
102	0xbe47e29f	-0.19520043
103	0xbdc70d88	-0.09719378
104	0xbdea84e8	-0.11451131
105	0xbe4c8ef4	-0.19976407
106	0x3d544696	0.05182513
107	0xbd6557b1	-0.055991832
108	0xbd7de2c1	-0.061983828
109	0xbe252441	-0.16127111
110	0x3d5cf3d8	0.053943485
111	0xbd1a3993	-0.037652563
112	0xbe006508	-0.1253854
113	0x3da1a679	0.0789308
114	0x3da1ac5c	0.07894203
115	0x3d89f870	0.06736839
116	0xbe8fc58b	-0.280804
117	0xbd96fd73	-0.0737256
118	0xbddff7cc	-0.109359354
119	0xbdf711fc	-0.12063977
120	0xbd6b0768	-0.05738011
121	0x3de4ca02	0.111713424
122	0xbd53eae4	-0.05173768
123	0xbdf9c85f	-0.12196421
124	0x3cafeba9	0.021474676
125	0x3dfc4ee2	0.12319733
126	0xbd92887b	-0.07154938
127	0x3cca05e3	0.02466101
128	0x3eca109f	0.39465806
129	0xbc935a06	-0.017987262
130	0xbe299d9a	-0.16564026
131	0x3e5dae36	0.21648487
132	0x3d53e613	0.051733088
133	0xbe1e7226	-0.15473232
134	0xbe97ebdb	-0.2967213
135	0x3d564784	0.052314296
136	0xbdc299a7	-0.09501963
137	0x3e3d3842	0.18478492
138	0x3d13b026	0.03605666
139	0x3dabe865	0.08393935
140	0x3e630746	0.22170743
141	0xbd192873	-0.03739209
142	0xbcd4b314	-0.025964297
143	0x3d107445	0.035267133
144	0x3e98ab71	0.298183
145	0x3d06890b	0.032845538
146	0x3d97277b	0.07380577
147	0x3e23482b	0.15945499
148	0xbe84f4e2	-0.2596808
149	0xbe904286	-0.28175753
150	0x3e5e050b	0.21681611
151	0xbdc275da	-0.09495135
152	0xbe50bc90	-0.20384431
153	0xbe87f950	-0.26557398
154	0x3d9bcb2c	0.07607111
155	0x3d378881	0.044807915
156	0x3de572e4	0.11203554
157	0xbdc1135b	-0.0942752
158	0x3d12fb1e	0.035884015
159	0x3ea4135d	0.32046023
160	0xbcceb2ad	-0.025231684
161	0x3e023608	0.12715924
162	0xbe6dc97a	-0.23221388
163	0xbd1197cb	-0.03554515
164	0x3c330ffd	0.010929105
165	0xbd33e4d6	-0.043919407
166	0x3e39e267	0.18152772
167	0xbcf90273	-0.030396676
168	0xbd0cf763	-0.034415614
169	0xbdf60fe4	-0.1201475
170	0x3e76095b	0.24027006
171	0x3d88aa8f	0.066731565
172	0x3dc409d8	0.0957219
173	0xbe923aef	-0.28560588
174	0xbccabf8c	-0.02474954
175	0xbe3621f1	-0.17786385
176	0x3d9639d6	0.0733525
177	0xbe23742e	-0.15962288
178	0xbd1a9ab8	-0.037745208
179	0x3db90bfd	0.0903549
180	0xbe41c7f6	-0.18923935
181	0xbbfc403a	-0.007698086
182	0x3df2af7e	0.11849879
183	0xbe24761f	-0.16060685
184	0xbdc2513c	-0.094881505
185	0x3df8df8b	0.121520124
186	0xbe4651c9	-0.19367136
187	0xbe32fd15	-0.17479356
188	0x3bbb6bb1	0.005719625
189	0x3e57bb4d	0.21067543
190	0xbc1ef4fa	-0.009701962
191	0x3e11ff79	0.14257611
192	0x3c37b63d	0.011212883
193	0xbd890576	-0.06690495
194	0x3cb4a985	0.02205349
195	0x3cde7a18	0.027157828
196	0xbd18bea6	-0.03729119
197	0x3c09821d	0.008392838
198	0xbdd70bd1	-0.10500301
199	0x3e403b48	0.18772614
200	0xbca272f0	-0.019830197
201	0x3d477c2f	0.048702415
202	0xbe079765	-0.13241346
203	0x3c86b996	0.016445916
204	0x3e6c8a66	0.2309967
205	0x3d7442a0	0.05963385
206	0xbe33d8c9	-0.17563166
207	0x3d94849d	0.072518565
208	0x3d0b9a5e	0.034082763
209	0x3dc66515	0.096872486
210	0x3e0e1248	0.13874161
211	0xbe56d1dc	-0.20978492
212	0x3e287341	0.16450216
213	0x3da5144e	0.080605134
214	0xbe229c87	-0.15880023
215	0x3dce1a1e	0.10063575
216	0xbd2a0e80	-0.041517735
217	0x3de5decc	0.11224136
218	0x3c844daa	0.016150314
219	0xbe31b2e1	-0.17353393
220	0xbe051a5d	-0.12998338
221	0x3dc221e4	0.094791204
222	0xbe455581	-0.19270898
223	0xbd2b5105	-0.041825313
224	0x3e88a924	0.26691544
225	0xbe06b40c	-0.1315462
226	0xbe1b1952	-0.15146378
227	0x3db85338	0.09000248
228	0x3e363314	0.17792922
229	0xbe30e2aa	-0.17273965
230	0x3e17ce58	0.14824808
231	0x3e23f59c	0.16011661
232	0xbdac1185	-0.08401779
233	0x3d9b10e2	0.075715795
234	0xbc24f8da	-0.010069096
235	0x3ea80e66	0.32823485
236	0x3d3999e5	0.04531278
237	0xbddd146b	-0.1079491
238	0xbab5c6f3	-0.0013868496
239	0xbd949730	-0.07255399
240	0xbd9e487c	-0.07728669
241	0xbde3c21e	-0.11121009
242	0xbdb66012	-0.08905043
243	0x3ba18665	0.004929351
244	0xbd281761	-0.04103792
245	0xbe381ddf	-0.17980145
246	0x3e442b85	0.19157226
247	0x3d295f66	0.041350745
248	0xbcf6343e	-0.030054208
249	0xbc8b0cd0	-0.016973883
250	0x3ddf2f0d	0.10897646
251	0x381ca586	3.7347454e-05
252	0xbe19658e	-0.14980146
253	0xbd64cd16	-0.055859648
254	0xbc9c9101	-0.019112112
255	0x3e51bb0c	0.20481509

mid_part.8.bias f4 [12]
0	0x39cc6273	0.00038983262
1	0xba792bb8	-0.0009505111
2	0xba897570	-0.001048727
3	0xbb0c7104	-0.0021429667
4	0xbb394cd8	-0.0028274562
5	0xba9fd647	-0.0012194597
6	0x3c7afc42	0.015318932
7	0x3c199497	0.0093738055
8	0x3b9381ee	0.004501573
9	0xbca1075a	-0.019656826
10	0xba184e49	-0.0005810005
11	0xba1476f5	-0.0005663478

mid_part.9.weight f4 [12]
0	0x3e72bc27	0.23704587
1	0x3f0e2a8d	0.5553368
2	0x3edc42dc	0.4301976
3	0x3f149f53	0.5805561
4	0x3f12aa7a	0.57291377
5	0x3e805096	0.25061482
6	0x3e961ad0	0.2931733
7	0x3eafb535	0.34317937
8	0x3e82026c	0.25392473
9	0x3e8313c1	0.2560101
10	0x3f0ecc08	0.55780077
11	0x3ef2f1b5	0.47450033
